…
The sparsity of the dataset: 99.98071694707788%
Tue 18 Nov 2025 02:37:40 INFO 
====Testing====
baby
The number of users: 19445
Average actions of users: 1.1150424273592183
The number of items: 5549
Average actions of items: 3.907370697422959
The number of inters: 21682
The sparsity of the dataset: 99.97990552482683%
Tue 18 Nov 2025 02:37:44 INFO 

=================================


Tue 18 Nov 2025 02:37:44 INFO =========1/8: Parameters:['seed', 'dropout', 'reg_weight']=(999, 0.8, 0.0)=======
Tue 18 Nov 2025 02:37:45 INFO FREEDOM(
  (i_pe): PositionalEncoding()
  (u_pe): PositionalEncoding()
  (user_embedding): Embedding(19445, 64)
  (item_id_embedding): Embedding(7050, 64)
  (image_embedding): Embedding(7050, 4096)
  (image_trs): MLP(
    (mlp): Sequential(
      (0): Linear(in_features=4096, out_features=256, bias=True)
      (1): BatchNorm1d(256, eps=1e-05, momentum=0.1, affine=True, track_running_stats=True)
      (2): ReLU()
      (3): Dropout(p=0.1, inplace=False)
      (4): Linear(in_features=256, out_features=128, bias=True)
      (5): BatchNorm1d(128, eps=1e-05, momentum=0.1, affine=True, track_running_stats=True)
      (6): ReLU()
      (7): Dropout(p=0.1, inplace=False)
      (8): Linear(in_features=128, out_features=64, bias=True)
    )
  )
  (text_embedding): Embedding(7050, 384)
  (text_trs): MLP(
    (mlp): Sequential(
      (0): Linear(in_features=384, out_features=256, bias=True)
      (1): BatchNorm1d(256, eps=1e-05, momentum=0.1, affine=True, track_running_stats=True)
      (2): ReLU()
      (3): Dropout(p=0.1, inplace=False)
      (4): Linear(in_features=256, out_features=128, bias=True)
      (5): BatchNorm1d(128, eps=1e-05, momentum=0.1, affine=True, track_running_stats=True)
      (6): ReLU()
      (7): Dropout(p=0.1, inplace=False)
      (8): Linear(in_features=128, out_features=64, bias=True)
    )
  )
)
Trainable parameters: 34510912
Tue 18 Nov 2025 02:37:51 INFO epoch 0 training [time: 5.65s, train loss: 263.4842]
Tue 18 Nov 2025 02:37:53 INFO epoch 0 evaluating [time: 1.10s, valid_score: 0.041800]
Tue 18 Nov 2025 02:37:53 INFO valid result: 
recall@10: 0.0175    recall@20: 0.0290    ndcg@10: 0.0099    ndcg@20: 0.0128    
Tue 18 Nov 2025 02:37:53 INFO test result: 
…
